Model: "sequential"
_________________________________________________________________
Layer (type)                 Output Shape              Param #   
=================================================================
conv2d (Conv2D)              (None, 32, 32, 64)        3200      
_________________________________________________________________
max_pooling2d (MaxPooling2D) (None, 16, 16, 64)        0         
_________________________________________________________________
conv2d_1 (Conv2D)            (None, 16, 16, 128)       73856     
_________________________________________________________________
conv2d_2 (Conv2D)            (None, 16, 16, 128)       147584    
_________________________________________________________________
max_pooling2d_1 (MaxPooling2 (None, 8, 8, 128)         0         
_________________________________________________________________
conv2d_3 (Conv2D)            (None, 8, 8, 256)         295168    
_________________________________________________________________
conv2d_4 (Conv2D)            (None, 8, 8, 256)         590080    
_________________________________________________________________
max_pooling2d_2 (MaxPooling2 (None, 4, 4, 256)         0         
_________________________________________________________________
flatten (Flatten)            (None, 4096)              0         
_________________________________________________________________
dense (Dense)                (None, 480)               1966560   
_________________________________________________________________
batch_normalization (BatchNo (None, 480)               1920      
_________________________________________________________________
dropout (Dropout)            (None, 480)               0         
_________________________________________________________________
dense_1 (Dense)              (None, 448)               215488    
_________________________________________________________________
dropout_1 (Dropout)          (None, 448)               0         
_________________________________________________________________
dense_2 (Dense)              (None, 2)                 898       
=================================================================
Total params: 3,294,754
Trainable params: 3,293,794
Non-trainable params: 960
_________________________________________________________________
