Model: "sequential"
_________________________________________________________________
Layer (type)                 Output Shape              Param #   
=================================================================
conv2d (Conv2D)              (None, 64, 64, 64)        1664      
_________________________________________________________________
max_pooling2d (MaxPooling2D) (None, 32, 32, 64)        0         
_________________________________________________________________
conv2d_1 (Conv2D)            (None, 32, 32, 128)       73856     
_________________________________________________________________
conv2d_2 (Conv2D)            (None, 32, 32, 128)       147584    
_________________________________________________________________
max_pooling2d_1 (MaxPooling2 (None, 16, 16, 128)       0         
_________________________________________________________________
conv2d_3 (Conv2D)            (None, 16, 16, 256)       295168    
_________________________________________________________________
conv2d_4 (Conv2D)            (None, 16, 16, 256)       590080    
_________________________________________________________________
max_pooling2d_2 (MaxPooling2 (None, 8, 8, 256)         0         
_________________________________________________________________
flatten (Flatten)            (None, 16384)             0         
_________________________________________________________________
dense (Dense)                (None, 384)               6291840   
_________________________________________________________________
batch_normalization (BatchNo (None, 384)               1536      
_________________________________________________________________
dropout (Dropout)            (None, 384)               0         
_________________________________________________________________
dense_1 (Dense)              (None, 256)               98560     
_________________________________________________________________
dropout_1 (Dropout)          (None, 256)               0         
_________________________________________________________________
dense_2 (Dense)              (None, 3)                 771       
=================================================================
Total params: 7,501,059
Trainable params: 7,500,291
Non-trainable params: 768
_________________________________________________________________
