Model: "sequential"
_________________________________________________________________
Layer (type)                 Output Shape              Param #   
=================================================================
conv2d (Conv2D)              (None, 168, 168, 64)      4864      
_________________________________________________________________
max_pooling2d (MaxPooling2D) (None, 84, 84, 64)        0         
_________________________________________________________________
conv2d_1 (Conv2D)            (None, 84, 84, 128)       73856     
_________________________________________________________________
conv2d_2 (Conv2D)            (None, 84, 84, 128)       147584    
_________________________________________________________________
max_pooling2d_1 (MaxPooling2 (None, 42, 42, 128)       0         
_________________________________________________________________
conv2d_3 (Conv2D)            (None, 42, 42, 256)       295168    
_________________________________________________________________
conv2d_4 (Conv2D)            (None, 42, 42, 256)       590080    
_________________________________________________________________
max_pooling2d_2 (MaxPooling2 (None, 21, 21, 256)       0         
_________________________________________________________________
flatten (Flatten)            (None, 112896)            0         
_________________________________________________________________
dense (Dense)                (None, 384)               43352448  
_________________________________________________________________
batch_normalization (BatchNo (None, 384)               1536      
_________________________________________________________________
dropout (Dropout)            (None, 384)               0         
_________________________________________________________________
dense_1 (Dense)              (None, 256)               98560     
_________________________________________________________________
dropout_1 (Dropout)          (None, 256)               0         
_________________________________________________________________
dense_2 (Dense)              (None, 3)                 771       
=================================================================
Total params: 44,564,867
Trainable params: 44,564,099
Non-trainable params: 768
_________________________________________________________________
